…
WARNING:tensorflow:From C:\ProgramData\Anaconda3\lib\site-packages\tensorflow\python\framework\op_def_library.py:263: colocate_with (from tensorflow.python.framework.ops) is deprecated and will be removed in a future version.
Instructions for updating:
Colocations handled automatically by placer.
Load weights?
__________________________________________________________________________________________________
Layer (type)                    Output Shape         Param #     Connected to
==================================================================================================
input_1 (InputLayer)            (None, 56, 1151)     0
__________________________________________________________________________________________________
input_2 (InputLayer)            (None, 78, 974)      0
__________________________________________________________________________________________________
gru_1 (GRU)                     [(None, 56, 256), (N 1081344     input_1[0][0]
__________________________________________________________________________________________________
gru_2 (GRU)                     [(None, 78, 256), (N 945408      input_2[0][0]
                                                                 gru_1[0][1]
__________________________________________________________________________________________________
lambda_1 (Lambda)               (None, 78, 56, 256)  0           gru_2[0][0]
__________________________________________________________________________________________________
lambda_2 (Lambda)               (None, 78, 56, 256)  0           gru_1[0][0]
__________________________________________________________________________________________________
concatenate_1 (Concatenate)     (None, 78, 56, 512)  0           lambda_1[0][0]
                                                                 lambda_2[0][0]
__________________________________________________________________________________________________
time_distributed_1 (TimeDistrib (None, 78, 56, 128)  65664       concatenate_1[0][0]
__________________________________________________________________________________________________
time_distributed_2 (TimeDistrib (None, 78, 56, 1)    129         time_distributed_1[0][0]
__________________________________________________________________________________________________
reshape_1 (Reshape)             (None, 78, 56)       0           time_distributed_2[0][0]
__________________________________________________________________________________________________
softmax_1 (Softmax)             (None, 78, 56)       0           reshape_1[0][0]
__________________________________________________________________________________________________
permute_1 (Permute)             (None, 256, 56)      0           gru_1[0][0]
__________________________________________________________________________________________________
lambda_3 (Lambda)               (None, 78, 256, 56)  0           softmax_1[0][0]
__________________________________________________________________________________________________
lambda_4 (Lambda)               (None, 78, 256, 56)  0           permute_1[0][0]
__________________________________________________________________________________________________
multiply_1 (Multiply)           (None, 78, 256, 56)  0           lambda_3[0][0]
                                                                 lambda_4[0][0]
__________________________________________________________________________________________________
lambda_5 (Lambda)               (None, 78, 256)      0           multiply_1[0][0]
__________________________________________________________________________________________________
concatenate_2 (Concatenate)     (None, 78, 512)      0           lambda_5[0][0]
                                                                 gru_2[0][0]
__________________________________________________________________________________________________
time_distributed_3 (TimeDistrib (None, 78, 256)      131328      concatenate_2[0][0]
__________________________________________________________________________________________________
dense_4 (Dense)                 (None, 78, 974)      250318      time_distributed_3[0][0]
==================================================================================================
Total params: 2,474,191
Trainable params: 2,474,191
Non-trainable params: 0
__________________________________________________________________________________________________
Train?yes
2019-11-22 13:37:18.831296: I tensorflow/core/platform/cpu_feature_guard.cc:141] Your CPU supports instructions that this TensorFlow binary was not compiled to use: AVX2
…
2019-11-22 13:37:19.074068: E tensorflow/core/grappler/optimizers/dependency_optimizer.cc:704] Iteration = 0, topological sort failed with message: The graph couldn't be sorted in topological order.
2019-11-22 13:37:19.083094: E tensorflow/core/grappler/optimizers/dependency_optimizer.cc:704] Iteration = 1, topological sort failed with message: The graph couldn't be sorted in topological order.
__________________________________________________________________________________________________
Layer (type)                    Output Shape         Param #     Connected to
==================================================================================================
input_4 (InputLayer)            (None, 1, 974)       0
__________________________________________________________________________________________________
input_5 (InputLayer)            (None, 256)          0
__________________________________________________________________________________________________
gru_2 (GRU)                     multiple             945408      input_4[0][0]
                                                                 input_5[0][0]
__________________________________________________________________________________________________
input_3 (InputLayer)            (None, 56, 256)      0
__________________________________________________________________________________________________
lambda_6 (Lambda)               (None, 1, 56, 256)   0           gru_2[1][0]
__________________________________________________________________________________________________
lambda_7 (Lambda)               (None, 1, 56, 256)   0           input_3[0][0]
__________________________________________________________________________________________________
concatenate_3 (Concatenate)     (None, 1, 56, 512)   0           lambda_6[0][0]
                                                                 lambda_7[0][0]
__________________________________________________________________________________________________
time_distributed_4 (TimeDistrib (None, 1, 56, 128)   65664       concatenate_3[0][0]
__________________________________________________________________________________________________
time_distributed_5 (TimeDistrib (None, 1, 56, 1)     129         time_distributed_4[0][0]
__________________________________________________________________________________________________
reshape_2 (Reshape)             (None, 1, 56)        0           time_distributed_5[0][0]
__________________________________________________________________________________________________
softmax_2 (Softmax)             (None, 1, 56)        0           reshape_2[0][0]
__________________________________________________________________________________________________
permute_2 (Permute)             (None, 256, 56)      0           input_3[0][0]
__________________________________________________________________________________________________
lambda_8 (Lambda)               (None, 1, 256, 56)   0           softmax_2[0][0]
__________________________________________________________________________________________________
lambda_9 (Lambda)               (None, 1, 256, 56)   0           permute_2[0][0]
__________________________________________________________________________________________________
multiply_2 (Multiply)           (None, 1, 256, 56)   0           lambda_8[0][0]
                                                                 lambda_9[0][0]
__________________________________________________________________________________________________
lambda_10 (Lambda)              (None, 1, 256)       0           multiply_2[0][0]
__________________________________________________________________________________________________
concatenate_4 (Concatenate)     (None, 1, 512)       0           lambda_10[0][0]
                                                                 gru_2[1][0]
__________________________________________________________________________________________________
time_distributed_6 (TimeDistrib (None, 1, 256)       131328      concatenate_4[0][0]
__________________________________________________________________________________________________
dense_4 (Dense)                 multiple             250318      time_distributed_6[0][0]
==================================================================================================
Total params: 1,392,847
Trainable params: 1,392,847
Non-trainable params: 0
__________________________________________________________________________________________________
…
